cifar_net.pth (torch, 251391 bytes, 10 tensors)

conv1.weight f4 [6, 3, 5, 5]
0	0xbde7ebec	-0.113242954
1	0xbc62805d	-0.0138245495
2	0x3b8e67de	0.004345878
3	0xbcbd93b6	-0.023141723
4	0x3ca961ea	0.020676572
5	0xbddb07a8	-0.1069482
6	0xbd171686	-0.036886714
7	0xbdad555c	-0.08463547
8	0x3c97f94b	0.01855149
9	0x3dc9d7b7	0.098555975
10	0xbe02a352	-0.12757614
11	0xbde7b08c	-0.113129705
12	0x3bcb7d70	0.0062100217
13	0x3ca2b655	0.019862333
14	0x3d8f3f80	0.069945335
15	0xbe374333	-0.17896728
16	0xbcbb3201	-0.022850992
17	0xbe3db883	-0.18527417
18	0x3d0971ff	0.03355598
19	0x3c979d14	0.018507518
20	0xbe3b5056	-0.18292364
21	0x3c1003b5	0.008789946
22	0xbde8960f	-0.113567464
23	0xbc7af88b	-0.015318046
24	0x3b983b53	0.004645744
25	0xbd43ba63	-0.047785174
26	0xbd9798ee	-0.07402216
27	0xbd5079a7	-0.050897267
28	0x3d664b15	0.056223948
29	0xbd51ddf5	-0.051237065
30	0x3c2e73a8	0.010647692
31	0xbd986a9d	-0.0744221
32	0xbe43259c	-0.19057316
33	0x3d532f02	0.051558502
34	0x3d7f3ed0	0.062315762
35	0xbdce31ee	-0.10068117
36	0x3b18733f	0.0023262051
37	0x3ca95378	0.020669684
38	0x3d68d4ca	0.056843556
39	0x3da97dd7	0.08275955
40	0xbdd15b4b	-0.10222491
41	0xbd91371e	-0.07090591
42	0x3d6c5231	0.05769557
43	0xbc30ceed	-0.010791522
44	0x3d8be082	0.06829931
45	0xbdd1bd2a	-0.10241158
46	0xbd98a456	-0.074532196
47	0xbb85813f	-0.004074245
48	0x3d310881	0.043221
49	0xbd8cd66b	-0.068768345
50	0x3cdd1430	0.026987165
51	0x3d6c92e3	0.05775727
52	0x3d6195b6	0.055074416
53	0x3d40887a	0.047005154
54	0x3dded387	0.108801894
55	0xbe1aef03	-0.15130238
56	0xbcb6aaee	-0.022298303
57	0x3e263c4b	0.16233937
58	0x3e358eb6	0.17730221
59	0x3e04a5ae	0.12953827
60	0xbdadadf9	-0.08480448
61	0xbc4289c3	-0.011873665
62	0x3df65fae	0.12029968
63	0x3e632d75	0.22185309
64	0x3e8a819f	0.27052018
65	0xbcd4707b	-0.025932541
66	0x3d57d4a4	0.052693024
67	0x3e8129f4	0.2522732
68	0x3ec101a3	0.3769656
69	0x3eb5f859	0.35541037
70	0x3d7b2c7e	0.061321728
71	0x3d0d1f47	0.034453657
72	0x3e3a335a	0.18183652
73	0x3e971ac1	0.295126
74	0x3e8fb14a	0.28064948
75	0x3e70dc9e	0.23521659
76	0x3e014610	0.12624383
77	0xbd00498d	-0.031320143
78	0x3e25aef8	0.16180027
79	0x3d7a8e16	0.06117066
80	0x3e886089	0.2663615
81	0xbe57e7f1	-0.21084572
82	0xbdb2e083	-0.087342285
83	0x3de67c5e	0.1125419
84	0x3e7dd1a2	0.24787
85	0x3e30dbae	0.17271301
86	0xbeeb1c8a	-0.4592021
87	0xbe5301c8	-0.20606148
88	0x3e78aeca	0.24285427
89	0x3e70c47e	0.23512456
90	0x3e3cccdf	0.18437527
91	0xbef0ca20	-0.4702921
92	0xbe7ca253	-0.24671297
93	0x3e9acb5f	0.30233285
94	0x3e4f31ba	0.20233813
95	0x3e1c5302	0.1526604
96	0xbea2178c	-0.3165859
97	0xbe5b7730	-0.21432185
98	0x3cfb6f35	0.030692676
99	0x3e617fbe	0.22021386
100	0xbd79d405	-0.060993213
101	0xbe7dd13f	-0.24786852
102	0xbe1671bb	-0.14691822
103	0xbe2a4774	-0.1662882
104	0xbd7648e2	-0.0601281
105	0x3da42ed9	0.08016748
106	0xbf019f06	-0.50633276
107	0xbeb5e484	-0.35525906
108	0x3e6c20c0	0.23059368
109	0x3e4fb5ed	0.20284243
110	0x3e6d8e04	0.23198706
111	0xbf1d7e1f	-0.6152057
112	0xbeb99e24	-0.36253464
113	0x3eaafefc	0.33397663
114	0x3e9eac15	0.30990663
115	0x3e136cc3	0.14396958
116	0xbe9825ed	-0.29716435
117	0xbeb9864c	-0.36235273
118	0x3e71bdbc	0.23607534
119	0x3e87bc89	0.26511028
120	0x3e6a473d	0.22878738
121	0xbe6f026a	-0.23340765
122	0xbe0d0bd4	-0.13774043
123	0x3e4dd5e1	0.2010112
124	0x3e4e3d97	0.20140682
125	0x3e0a25a4	0.13490921
126	0xbe1a52c4	-0.15070635
127	0xbe2e9a14	-0.17050964
128	0x3cdc0cba	0.026861537
129	0x3da61a03	0.0811043
130	0x3e30a367	0.17249833
131	0xbed08f0b	-0.40734133
132	0xbe605df8	-0.21910846
133	0x3e9bd45e	0.3043546
134	0x3e5a0601	0.21291353
135	0x3e3e495c	0.18582672
136	0xbef7a455	-0.48367563
137	0xbea35143	-0.31897935
138	0x3eae85e3	0.34086522
139	0x3ebfeda9	0.37486008
140	0x3e38cf01	0.18047716
141	0xbef5349f	-0.4789171
142	0xbeaad28c	-0.3336376
143	0x3ec9199f	0.3927736
144	0x3e99675f	0.29961678
145	0x3ddbc9f0	0.10731876
146	0xbda97e7e	-0.082760796
147	0xbe5e5120	-0.21710634
148	0x3d57c4ad	0.0526778
149	0x3e379728	0.17928755
150	0x3e1c0f83	0.15240292
151	0x3ec2025b	0.37892422
152	0x3ebc6652	0.36796814
153	0x3d8c659a	0.068553165
154	0xbd323341	-0.04350591
155	0x3ddf12b9	0.10892243
156	0x3e802a2e	0.2503218
157	0xbce484a1	-0.027895274
158	0xbd836adc	-0.06416866
159	0xbccaed94	-0.02477149
160	0xbede626d	-0.43434468
161	0xbf27ebbe	-0.6559409
162	0xbf039d43	-0.5141184
163	0xbeea6da6	-0.4578678
164	0xbea2ddaf	-0.31809756
165	0xbe0f39a8	-0.13986838
166	0xbe5b47ff	-0.21414183
167	0xbe55be5e	-0.208734
168	0xbe2ad416	-0.16682467
169	0xbd4a6188	-0.04940942
170	0x3d40348d	0.046925116
171	0x3e160dd1	0.14653708
172	0x3e3c42b3	0.18384819
173	0x3dc7e0ac	0.0975965
174	0x3e14006d	0.14453287
175	0x3e44ccaa	0.19218698
176	0x3eaf1d03	0.34201822
177	0x3ec8a01e	0.3918466
178	0x3e85b00b	0.26110873
179	0x3e051b66	0.12998733
180	0x3e58a674	0.21157247
181	0x3e9d7a18	0.30757213
182	0x3e0e6260	0.13904715
183	0x3d86dcc0	0.065850735
184	0x3d49831e	0.04919731
185	0xbeb11507	-0.34586355
186	0xbef8c08b	-0.485844
187	0xbebb791e	-0.36615843
188	0xbeaf1182	-0.34193045
189	0xbdd29bdc	-0.10283634
190	0xbe17f483	-0.14839368
191	0xbe014462	-0.12623742
192	0xbdca945f	-0.09891581
193	0xbde54dd8	-0.11196488
194	0x3e32ab83	0.17448239
195	0x3dbd4a61	0.09242702
196	0x3e240bc4	0.16020113
197	0x3ea4f371	0.3221698
198	0x3e5ee9bb	0.21768849
199	0xbc26e213	-0.010185736
200	0x3da34fa5	0.07974175
201	0x3e4f74af	0.20259355
202	0x3e70bede	0.2351031
203	0x3e029ad4	0.12754375
204	0xbde819a6	-0.11333017
205	0x3dbbbd15	0.09166924
206	0x3e153a9e	0.14573142
207	0x3e451aa2	0.19248441
208	0x3d908fea	0.070586994
209	0x3dbdfa2f	0.09276234
210	0xbe90d969	-0.2829087
211	0xbead8f9d	-0.3389863
212	0xbeba6c0b	-0.36410555
213	0xbe6ae1d1	-0.22937705
214	0xbd1884e0	-0.037236094
215	0xbde955e6	-0.11393337
216	0xbe3bcffe	-0.18341061
217	0xbdc75e29	-0.097347565
218	0x3d166f83	0.03672744
219	0x3e43dc2a	0.19126955
220	0x3dc8ade1	0.0979879
221	0x3e5e5ca6	0.2171503
222	0x3e28de9d	0.1649117
223	0x3e342ce8	0.17595255
224	0x3e0ff8dd	0.14059778
225	0x3e678f40	0.2261324
226	0x3e877fa0	0.26464558
227	0x3eb11c43	0.34591874
228	0x3ec4cc6b	0.3843721
229	0x3e20982a	0.15683046
230	0x3ebf3448	0.37344575
231	0x3ee8cd0e	0.45468944
232	0x3eefb616	0.46818608
233	0x3e9234e3	0.28555974
234	0x3e958b85	0.29208007
235	0x3e03a9b3	0.12857704
236	0x3e15eb1c	0.14640468
237	0x3d717de5	0.058957953
238	0x3e00cd0b	0.12578218
239	0x3cff25a7	0.031145884
240	0x3d2dc01a	0.04241953
241	0xbd9d4a28	-0.0768016
242	0xbd925003	-0.07144167
243	0x3ce3a69d	0.027789408
244	0xbcb234f2	-0.021753762
245	0xbebb5c7c	-0.36593997
246	0xbe8d50fa	-0.27600843
247	0xbe7219ed	-0.23642702
248	0xbe49497c	-0.19656938
249	0xbe84ebc6	-0.2596113
250	0xbd62b361	-0.05534685
251	0xbd6064c5	-0.0547836
252	0x3d6de42d	0.058078934
253	0xbd477fd9	-0.04870591
254	0xbe17c9dc	-0.14823097
255	0xbdea829a	-0.114506915

conv1.bias f4 [6]
0	0x3e0b0874	0.13577443
1	0xbe998cc1	-0.299902
2	0xbe7d563b	-0.24739926
3	0xbf2efb1b	-0.68351907
4	0xbeb8aabb	-0.36067757
5	0xbe07e377	-0.13270365

conv2.weight f4 [16, 6, 5, 5]
0	0x3d918750	0.07105887
1	0x3dbbbff1	0.09167469
2	0x3e369d9a	0.17833558
3	0x3e00fde5	0.12596853
4	0x3d51ac30	0.0511896
5	0xbca418d4	-0.02003137
6	0xbcb28e1b	-0.021796277
7	0x3ca4a642	0.02009881
8	0xbca4fcf2	-0.020140145
9	0xbe41a48d	-0.18910427
10	0x3c7a7cd9	0.015288555
11	0xbe14b7e2	-0.1452327
12	0xbd0416ab	-0.03224818
13	0xbd9dcde7	-0.077052884
14	0xbe77e243	-0.24207406
15	0xbda85577	-0.08219426
16	0xbe326643	-0.17421822
17	0xbdc156cf	-0.094403856
18	0xbe60c394	-0.21949607
19	0xbe7f2654	-0.24916965
20	0xbe5d30c1	-0.2160063
21	0xbe707955	-0.23483784
22	0xbd7fd93f	-0.06246304
23	0xbda5f628	-0.08103591
24	0xbd6bafb6	-0.057540618
25	0x3c638048	0.013885565
26	0xbdffca28	-0.1248973
27	0x3d9c49bb	0.076312505
28	0xbc28baa5	-0.010298406
29	0xbbe6cb1e	-0.0070432564
30	0x3e125066	0.14288482
31	0xbd47b9e0	-0.04876125
32	0x3db169c0	0.08662748
33	0xbe2ff247	-0.17182265
34	0xbbe158fd	-0.0068770633
35	0x3df89707	0.12138181
36	0xbe398e37	-0.18120657
37	0x3e227e78	0.15868556
38	0xbe7acfae	-0.24493286
39	0xbab1f42a	-0.0013576795
40	0x3e944812	0.28961235
41	0xbe1c3605	-0.15254982
42	0x3e518fdb	0.20465033
43	0xbde1b15b	-0.11020156
44	0x3ea42622	0.32060343
45	0x3dbb6db1	0.09151781
46	0xbe316ec8	-0.17327416
47	0x3d95c5ec	0.07313141
48	0x3c8cd965	0.017193506
49	0x3e7d3280	0.24726295
50	0x3e2df235	0.16986926
51	0x3bd70af2	0.006562584
52	0x3c37c529	0.01121644
53	0xbcabadeb	-0.020956954
54	0x3dc27a4b	0.09495982
55	0xbda6f5a6	-0.081523225
56	0xbcc14d4e	-0.023596432
57	0xbb1ab620	-0.002360709
58	0x3d874a2f	0.06605946
59	0x3e16fb49	0.14744295
60	0xbb08067a	-0.0020755813
61	0x3c19b109	0.009380587
62	0xbd247912	-0.040154524
63	0x3b70a495	0.0036719192
64	0x3c1eac9f	0.009684711
65	0x3ca01970	0.01954338
66	0x3dc100ce	0.094239816
67	0x3e0e1379	0.13874616
68	0x3dd01c81	0.10161687
69	0x3e1e2abe	0.15445992
70	0x3e0cfc32	0.1376808
71	0x3e5a1229	0.2129599
72	0x3dc69660	0.096966505
73	0x3e09fa96	0.13474497
74	0x3ca7653c	0.020434014
75	0x3e03121e	0.1279988
76	0xbcc777f2	-0.024349187
77	0xbd53b1bb	-0.05168317
78	0xbce526fb	-0.027972689
79	0x3dae57c8	0.08512837
80	0x3e07fe20	0.13280535
81	0x3e1e104b	0.15435903
82	0x3de4b8c2	0.11168052
83	0x3e10408b	0.14087121
84	0x3e111ccf	0.14171146
85	0x3d34b6bb	0.044119578
86	0x3d6be091	0.05758721
87	0xbc82759d	-0.015925223
88	0xbb91decd	-0.0044516088
89	0x3e233d9c	0.15941471
90	0x3d27eb24	0.040995732
91	0xbd3773ac	-0.044788048
92	0x3b0046f4	0.0019573541
93	0xbd60559a	-0.054769136
94	0xbd87fb77	-0.0663976
95	0xbd2bf51f	-0.041981813
96	0x3d85d76d	0.0653523
97	0x3d608e92	0.054823466
98	0x3af2022c	0.0018463782
99	0xbdad8462	-0.08472516
100	0xbd65f015	-0.056137163
101	0x3c963dd5	0.01834003
102	0xbdcd2b83	-0.10018065
103	0xbe2b43a8	-0.16725028
104	0xbdb110e2	-0.08645798
105	0xbdc148d9	-0.09437723
106	0xbe0b44c8	-0.13600457
107	0xbe083254	-0.13300449
108	0xbdf7bed4	-0.120969445
109	0xbe1e1c61	-0.15440513
110	0xbe1e69bc	-0.15470022
111	0xbd9f65b8	-0.07783073
112	0xbe4d81a4	-0.20068985
113	0xbdcb0016	-0.09912126
114	0xbe202b21	-0.15641452
115	0xbbcb742e	-0.006208918
116	0xbdbfc0d7	-0.09362953
117	0xbc42784c	-0.011869501
118	0xbb06c167	-0.0020562054
119	0x3ce65121	0.028114857
120	0x3d87dfd0	0.06634486
121	0xbd234940	-0.03986478
122	0xbc2db7e8	-0.010602929
123	0x3ddbe093	0.107361935
124	0xbd604006	-0.054748558
125	0x3d0a70e4	0.033799067
126	0xbd7585dc	-0.05994211
127	0xbdd1a2ac	-0.10236105
128	0xbe0ed6ec	-0.13949174
129	0xbc3b0400	-0.011414528
130	0xbd748a36	-0.05970212
131	0xbe160c5f	-0.14653157
132	0xbdc81f7b	-0.097716294
133	0xbd2d14e8	-0.042256266
134	0x3d3a6b66	0.04551258
135	0xbdcd5fd4	-0.100280434
136	0xbe36cf31	-0.17852475
137	0xbe30bee9	-0.17260326
138	0xbdf34025	-0.11877469
139	0xbc8ee7d2	-0.017444525
140	0xbdf65fb0	-0.1202997
141	0xbe40b157	-0.1881765
142	0xbe3c28c3	-0.18374924
143	0xbcf92184	-0.03041149
144	0x3c228ea2	0.009921702
145	0xbe3e4962	-0.18582681
146	0xbe92d987	-0.28681585
147	0xbe8f4c60	-0.27987957
148	0xbe017d6d	-0.12645502
149	0xbe746a04	-0.23868567
150	0xbd3dfb9e	-0.04638254
151	0xbde02d62	-0.10946156
152	0xbbc9ef71	-0.006162577
153	0x3e03b027	0.12860166
154	0x3e1e45cd	0.15456314
155	0xbdbfbae9	-0.09361822
156	0xbce31c80	-0.02772355
157	0x3cf3b58d	0.029749656
158	0x3de40b7d	0.11135004
159	0x3ddcf956	0.107897446
160	0x3d52ca01	0.051462177
161	0x3df1a28c	0.117985815
162	0x3cb6700c	0.022270225
163	0xbd8d2a08	-0.068927824
164	0x3d560131	0.05224723
165	0x3c968012	0.018371616
166	0x3d1f6647	0.0389159
167	0xbcd23889	-0.025661724
168	0x3d0f8c96	0.035046183
169	0x3da9a6b3	0.082837485
170	0x3c009403	0.007847789
171	0x3d1f848c	0.038944766
172	0xbddbfcda	-0.10741587
173	0xbd0d2e3c	-0.03446792
174	0xbd1cf658	-0.03832087
175	0xbe0026b5	-0.12514766
176	0xbe60ce18	-0.21953619
177	0xbd51d711	-0.051230494
178	0xbd920196	-0.07129209
179	0x3d4c03b3	0.049808215
180	0xbe94709d	-0.28992167
181	0xbe587722	-0.21139196
182	0xbe2df466	-0.16987762
183	0xbe13e6ee	-0.14443561
184	0xbe181250	-0.14850736
185	0xbe320b84	-0.17387205
186	0xbe96130c	-0.29311407
187	0xbe6a13fc	-0.22859186
188	0xbe93ed54	-0.28892004
189	0xbe5a860a	-0.21340194
190	0x3c87898f	0.016545085
191	0xbe567075	-0.20941336
192	0xbe5962ea	-0.21229139
193	0xbe37dd92	-0.17955616
194	0xbdfc1eb8	-0.12310547
195	0xbd919ae8	-0.07109624
196	0xbdb2e087	-0.087342314
197	0xbda1e1d8	-0.079044044
198	0xbbe5e3d3	-0.007015684
199	0xbdf85046	-0.12124686
200	0x3e6b27de	0.22964427
201	0x3dc773d2	0.09738888
202	0x3ca55657	0.020182772
203	0x3db8229d	0.08990977
204	0x3e6e5749	0.23275484
205	0x3d65132c	0.055926487
206	0x3dbc39e9	0.09190733
207	0x3d8827d2	0.0664822
208	0x3df258b0	0.11833322
209	0x3e156ca2	0.14592221
210	0x3e63d843	0.22250466
211	0x3d69a6a9	0.057043705
212	0xbd87ad2f	-0.06624829
213	0x3e03458e	0.12819502
214	0x3e42123b	0.18952267
215	0x3e39c651	0.18142058
216	0x3dd9d710	0.10636723
217	0x3cefc504	0.029268749
218	0x3db61624	0.08890942
219	0x3e12f6c7	0.1435195
220	0x3e190dc7	0.14946662
221	0x3cd50e04	0.02600766
222	0xbd151c91	-0.036404196
223	0xbd9faac9	-0.077962466
224	0x3a9d9a8d	0.0012024209
225	0xbd956e64	-0.07296446
226	0xbdaa8cea	-0.083276585
227	0xbdc248b0	-0.0948652
228	0xbe81b78a	-0.25335342
229	0xbd88d0e7	-0.0668047
230	0xbdd29bf9	-0.10283656
231	0xbdf88147	-0.12134033
232	0xbe1334ab	-0.1437556
233	0xbd9aa8b3	-0.07551708
234	0xbe2ba619	-0.1676258
235	0xbd04265c	-0.032263145
236	0xbd5750be	-0.052567236
237	0xbd3c71e6	-0.04600706
238	0xbd7c1c55	-0.061550457
239	0xbe09bba2	-0.13450482
240	0x3d67b76a	0.0565714
241	0xbcd94597	-0.02652244
242	0x3c645e13	0.013938445
243	0x3ce45172	0.027870867
244	0xbd88d174	-0.06680575
245	0x3dbdcf10	0.0926801
246	0x3dffbd2c	0.124872535
247	0x3d612dc6	0.054975294
248	0x3d186444	0.037204996
249	0x3dcc1830	0.09965551
250	0x3e58820e	0.21143362
251	0x3dba4cc2	0.09096672
252	0x3c65debc	0.014030155
253	0x3cb91eb9	0.022597658
254	0x3e230bb4	0.15922433
255	0x3db474c3	0.08811333

conv2.bias f4 [16]
0	0xbeaa3175	-0.33240858
1	0x3e9a60c0	0.3015194
2	0xbe4b56c4	-0.19857317
3	0x3f341c2e	0.703555
4	0xbef93aa8	-0.48677564
5	0x3f488ebe	0.7834281
6	0x3e8617e2	0.26190096
7	0x3ed3bb3b	0.41353783
8	0xbef44490	-0.4770856
9	0x3ef24ff6	0.4732663
10	0x3d55ecd1	0.0522278
11	0xbd8be30a	-0.06830414
12	0xbe22610c	-0.15857333
13	0xbe092dbf	-0.13396357
14	0xbe1201b3	-0.1425846
15	0xbe306623	-0.17226462

fc1.weight f4 [120, 400]
0	0xbd0277f4	-0.031852677
1	0xbcd7740d	-0.026300455
2	0x39dff78f	0.0004271832
3	0x3d40fc5b	0.047115665
4	0x3b51508d	0.003193888
5	0xbd44498a	-0.047921695
6	0xbc39ba39	-0.011335903
7	0xbd1cc1b1	-0.038270656
8	0xbd00ad22	-0.031415112
9	0x3b71b4a8	0.003688136
10	0x3b395423	0.002827891
11	0xbd45cf35	-0.04829331
12	0x3a139675	0.0005630025
13	0xbb8b0751	-0.0042428155
14	0x3b2e0c60	0.002655767
15	0xbd1deb6a	-0.038554586
16	0xbd13d01e	-0.036087148
17	0xbd16f86d	-0.03685801
18	0x3ca98e2b	0.020697674
19	0x3d037017	0.03208932
20	0xbd3b68d3	-0.045754265
21	0x3ca87578	0.020563826
22	0xbc8e7f50	-0.017394692
23	0xbd218c49	-0.039440427
24	0xbd42bce3	-0.047543418
25	0xbd0a81a1	-0.03381503
26	0xbc897ce8	-0.016783193
27	0xbd41ad7b	-0.047284584
28	0xbb44e5a5	-0.0030044105
29	0x3d04d899	0.032433126
30	0xbbcb717a	-0.006208596
31	0xbbc48522	-0.005997316
32	0xbc194bc0	-0.009356439
33	0xbcd06782	-0.025439981
34	0x3c9adf91	0.018905433
35	0xbd536706	-0.051611923
36	0xbc3e6a74	-0.01162206
37	0x3ca60bdb	0.020269325
38	0xbd38703d	-0.045028914
39	0x3d3fcb48	0.046824723
40	0xbcfcd1a1	-0.030861678
41	0xbd2850bf	-0.04109263
42	0x3d18a92d	0.037270714
43	0xbcfde87b	-0.030994644
44	0xbccf499f	-0.02530366
45	0x3cb33c08	0.021879211
46	0xbcf6212c	-0.030045114
47	0x3c1f6058	0.00972756
48	0xbd135f1f	-0.035979386
49	0xbd4df97b	-0.05028675
50	0xbc550d4a	-0.013003657
51	0xbbcdf6d6	-0.0062855287
52	0x3c722be7	0.014780975
53	0x3c9210bd	0.017830247
54	0x3a953cc0	0.0011385903
55	0xbcd1c6b1	-0.025607439
56	0x3b30e638	0.002699269
57	0xbc12248b	-0.008919845
58	0xba3c945c	-0.0007193738
59	0xbd08fbc9	-0.033443246
60	0xbd1c9707	-0.03822997
61	0xbd2cc4f8	-0.04218003
62	0x3c0bed20	0.008540422
63	0xbc43a153	-0.011940318
64	0xbd3981d6	-0.045289837
65	0x3ce0223c	0.027360074
66	0x3d1ab36c	0.037768766
67	0xbd0600d4	-0.032715634
68	0x3c96a8c6	0.018391024
69	0x3d3f93e2	0.04677189
70	0xbca1e0fe	-0.019760605
71	0x3d00fe78	0.03149268
72	0x3c1240f8	0.008926623
73	0x3ca3fbdf	0.020017562
74	0x3d0d9542	0.03456617
75	0xbcacf34a	-0.021112103
76	0x3d430e52	0.04762108
77	0x3a051322	0.00050763984
78	0x3ba2cc5a	0.0049682083
79	0x3bace19f	0.0052759196
80	0x3ac3ae94	0.0014929348
81	0x3ce24f9e	0.027625855
82	0x3c189b7a	0.009314412
83	0x3c6cfe91	0.01446499
84	0xbd045217	-0.03230485
85	0x3b94daa3	0.004542665
86	0xbbd25044	-0.00641826
87	0xbd4dba91	-0.05022675
88	0xbd1895a1	-0.037252072
89	0x3ce75831	0.028240295
90	0xbcb67002	-0.022270206
91	0xbca004c9	-0.019533532
92	0x3cd7af66	0.026328754
93	0x3b00db8a	0.0019662105
94	0xbd0e3d1f	-0.03472626
95	0x3cbc3d45	0.022978434
96	0x3d05ad71	0.03263611
97	0xbceccbc9	-0.028905766
98	0x3c99ca3b	0.018773189
99	0xbc8a3798	-0.016872212
100	0xbd1d113f	-0.038346525
101	0xbb48bf17	-0.0030631477
102	0xbc725e12	-0.014792936
103	0xbd13bfa7	-0.036071446
104	0x3d1c7294	0.038195208
105	0xbd3c31bf	-0.04594588
106	0xbcaa74ad	-0.020807588
107	0x3cf4dac5	0.029889474
108	0x3d3411ea	0.043962397
109	0xbc11d30b	-0.008900414
110	0x3d171032	0.03688068
111	0xbb16436d	-0.0022928372
112	0x3ca31102	0.01990557
113	0x3cd0eba8	0.025502995
114	0x3cee970e	0.029124763
115	0xbc8c6c51	-0.017141493
116	0x3d1fa5a5	0.03897633
117	0xbbf4b9a2	-0.007468418
118	0x3bfb312d	0.0076657743
119	0xbd3d4b80	-0.04621458
120	0xbcac6f5d	-0.021049196
121	0xbc4f6147	-0.01265747
122	0x3d05314f	0.032517727
123	0x3cce1ac3	0.025159245
124	0xbd5f2fba	-0.054488875
125	0xbd5fdd4b	-0.0546544
126	0x3d02ddd3	0.03194983
127	0xbc684e38	-0.014178805
128	0x3ce8786f	0.02837774
129	0xbd68191c	-0.05666457
130	0xbd46f6b5	-0.048575122
131	0xbd5f1caa	-0.054470696
132	0x3d157441	0.03648782
133	0x3c6b60b0	0.014366314
134	0xbc7a771c	-0.015287187
135	0x3c291e6d	0.0103221955
136	0x3cfdc543	0.03097785
137	0xbc9c28e5	-0.019062469
138	0xbd1295ea	-0.0357875
139	0x3ca9caa6	0.020726513
140	0x3c2f88ce	0.010713769
141	0xbd10f444	-0.0353892
142	0x3cd9007f	0.026489494
143	0xbc9ccacf	-0.019139675
144	0xbcc59c4e	-0.024122383
145	0xbced6159	-0.028977083
146	0x3cc4fadb	0.024045398
147	0xbc890ea7	-0.01673062
148	0x3cb3fcca	0.021971125
149	0xbd63d39a	-0.05562172
150	0xbcacde4b	-0.021102091
151	0xbd389ea0	-0.04507315
152	0xbd4c10ab	-0.049820583
153	0x3d210d68	0.039319426
154	0xbd06005c	-0.032715186
155	0x3be6a7f1	0.007039063
156	0x3b54b974	0.0032459171
157	0xbd3640f7	-0.04449555
158	0xbcbb5c2b	-0.022871098
159	0x3cc0afb7	0.023521287
160	0xbd285aa6	-0.041102074
161	0x3d0d530b	0.034503024
162	0x3b6e67d3	0.0036377802
163	0x3d053515	0.032521326
164	0x3d017248	0.031603128
165	0x3cfb0d5a	0.030646015
166	0xbd4e0a01	-0.05030251
167	0xbd2d8977	-0.042367425
168	0x3c8d720b	0.017266294
169	0xbd1cdb42	-0.038295038
170	0x3c52576d	0.012838227
171	0xbcb313c1	-0.021860005
172	0x3d01efb3	0.031722736
173	0x3d0e7a44	0.03478457
174	0x3cb3f056	0.021965187
175	0x3ab79d4e	0.0014008672
176	0xbc8398fa	-0.016064156
177	0xbc74f9e9	-0.014952161
178	0x3c825762	0.015910808
179	0xbcd6ddd3	-0.02622882
180	0x3cd3155a	0.025767017
181	0xbc4a929a	-0.012364054
182	0x3ce69303	0.028146273
183	0xbd66f104	-0.056382194
184	0xbc7b5df2	-0.0153422225
185	0xbc93f30d	-0.018060232
186	0xbd1bb3b1	-0.038013164
187	0xbd5f205a	-0.054474212
188	0xbd0567b8	-0.032569617
189	0x3ac3f855	0.0014951328
190	0x3cbb5eb9	0.022872316
191	0xbc82ba5f	-0.01595801
192	0x3cc46713	0.02397493
193	0x3cb3be4a	0.021941323
194	0x3cc165fb	0.023608198
195	0xbb11419a	-0.0022164346
196	0x3c588338	0.013214879
197	0xbcecabc1	-0.028890492
198	0xbc63de5b	-0.013907994
199	0xb9c3cb99	-0.0003734499
200	0xbd12f206	-0.035875343
201	0x3d2f0169	0.042725954
202	0xbd568e2d	-0.052381683
203	0x3cb2b244	0.02181352
204	0x3c1c1c20	0.00952819
205	0x3caf0330	0.021363825
206	0x3c5cd665	0.01347885
207	0xbbfe4ad6	-0.007760386
208	0xbcb28238	-0.021790609
209	0x3c062979	0.008188599
210	0xbd0fe31e	-0.035128705
211	0x3c13dbc6	0.009024566
212	0xbd4b63b8	-0.049655646
213	0x3d25e31f	0.040499803
214	0xbc84b47a	-0.01619934
215	0xbd3ed9fe	-0.046594612
216	0xbcd90d54	-0.026495613
217	0xbd2a3048	-0.04154995
218	0xbbe19df4	-0.0068852846
219	0xbc15892b	-0.009126942
220	0xbd0f8073	-0.035034608
221	0xbd4116ba	-0.047140814
222	0xbd4427d1	-0.047889534
223	0xbd4948d8	-0.049141735
224	0x3cbbd426	0.022928309
225	0xbab1bba3	-0.0013559948
226	0xbcbad460	-0.022806346
227	0x3d08eaee	0.03342717
228	0x3c35a970	0.01108776
229	0xbc94f8bd	-0.018185014
230	0x3cb566cd	0.022143746
231	0x3aa51131	0.0012593624
232	0x3d41eaa7	0.047342923
233	0x3d3d35d1	0.0461939
234	0xbd19c0fc	-0.03753756
235	0xbb993271	-0.0046752025
236	0x3d26a5bb	0.040685397
237	0x3c95b316	0.018273871
238	0xbcfb90a2	-0.030708615
239	0xbd2e894f	-0.042611416
240	0x3d2c722b	0.042101067
241	0x3d0e1b35	0.034693915
242	0xbc6e238c	-0.014534842
243	0xbc8bf8ff	-0.017086504
244	0xbd0f8473	-0.035038423
245	0x3d238207	0.039918926
246	0x3c9b0318	0.018922374
247	0xbc893b6d	-0.01675197
248	0x3c5afcfb	0.013365979
249	0xba04bdc6	-0.0005063679
250	0x3d32b6d6	0.043631397
251	0xbc55248f	-0.0130092045
252	0xbc9eeb84	-0.019399412
253	0x3c2c14ec	0.010503035
254	0xbd28601d	-0.041107286
255	0x3cbf5f7d	0.023360962

fc1.bias f4 [120]
0	0xbd010a0a	-0.031503715
1	0xbd2c0df7	-0.042005505
2	0xbcf69a03	-0.030102735
3	0x3dd1246b	0.10212024
4	0x3e34898e	0.17630598
5	0xbc4902dc	-0.012268748
6	0xbd801690	-0.062543035
7	0x3dce768f	0.10081207
8	0x3d77d280	0.060503483
9	0x3c0d200b	0.008613597
10	0x3d1d6449	0.038425718
11	0x3dd5a3fb	0.104316674
12	0x3d88cf54	0.0668017
13	0xbcf9b797	-0.03048305
14	0x3dc6c923	0.097063325
15	0x3cdab49e	0.026697453
16	0xbd3aa6f7	-0.045569386
17	0xbe1228cf	-0.1427338
18	0xbd0fba9c	-0.035090074
19	0x3cc32191	0.023819717
20	0x3e23868d	0.15969296
21	0xbbe99718	-0.0071286075
22	0x3def2ee4	0.116788656
23	0x3d276963	0.04087199
24	0x3dfd97b7	0.12382453
25	0x3de121bc	0.109927624
26	0x3dfbac9a	0.122887805
27	0x3dc679ce	0.09691201
28	0x3dfee7fa	0.1244659
29	0xbdec9e5f	-0.115536444
30	0x3c3084e9	0.010773876
31	0x3ca27c7d	0.019834751
32	0xbda75e8d	-0.08172331
33	0x3e1a168e	0.15047666
34	0xbcf9a51f	-0.030474244
35	0x3cc7e8c3	0.024402982
36	0x3d797169	0.060899172
37	0x3bef6aa9	0.007306416
38	0xbd2d437a	-0.04230068
39	0x3d57e36e	0.05270713
40	0xbd3ac3b1	-0.045596782
41	0x3ce237fb	0.027614584
42	0xbbec40c8	-0.007209871
43	0x3d535d59	0.051602695
44	0xbd5d6b78	-0.05405757
45	0xbc147ae6	-0.009062504
46	0xbe0e5e43	-0.13903145
47	0x3c0cd376	0.008595338
48	0xbd67c81b	-0.05658732
49	0xbe21d010	-0.15802026
50	0x3e08a003	0.1334229
51	0x3d0dc5fa	0.034612633
52	0x3cf02324	0.029313631
53	0x3a45a0c7	0.00075389113
54	0xbba462f5	-0.0050166794
55	0xbd2d220f	-0.04226881
56	0x3db2ea13	0.08736052
57	0x3e26e7db	0.16299383
58	0x3e09c0a6	0.13452396
59	0x3d344676	0.04401251
60	0x3da55f19	0.08074779
61	0x3c2a5707	0.0103967255
62	0x3d1ff0ef	0.03904813
63	0x3d4f2488	0.05057195
64	0xbcbd566c	-0.023112498
65	0x3e0890b5	0.13336451
66	0xbc0e8a0f	-0.008699908
67	0x3c93f287	0.018059982
68	0x3c1840ee	0.009292824
69	0xbd7de4fd	-0.06198596
70	0xbce91014	-0.02845005
71	0xbd479f77	-0.048736062
72	0x3d5b244c	0.053501412
73	0xbc669d4e	-0.01407559
74	0x3bb86341	0.0056270664
75	0x3d3f9d09	0.04678062
76	0x3c8543d8	0.016267702
77	0xbcdf7133	-0.027275657
78	0x3d58e0b0	0.052948654
79	0x3dda0362	0.106451765
80	0x3dd908ab	0.105973564
81	0xbbf69125	-0.007524627
82	0xbcdb3c2a	-0.026762087
83	0x3ce44631	0.027865501
84	0x3dbcbea2	0.09216048
85	0x3d95b15a	0.07309218
86	0x3ddb96e2	0.10722138
87	0x3c7c26c8	0.015390106
88	0x3e4eacfa	0.20183173
89	0xbdd62b06	-0.10457425
90	0xbe0a8645	-0.13527782
91	0x3e621de7	0.2208172
92	0xbcfd5f41	-0.03092921
93	0xbcdc8337	-0.026918037
94	0x3d79689d	0.060890783
95	0x3dca376e	0.098738536
96	0xbdea5451	-0.11441863
97	0xbde59675	-0.11210338
98	0xbd36ff90	-0.044677317
99	0xbdd1f5f6	-0.102519915
100	0xbb6c8c16	-0.003609424
101	0x3da4420c	0.0802041
102	0xbd12c9b5	-0.035836894
103	0x3d3c92ba	0.046038367
104	0xbd344fd2	-0.044021435
105	0x3cb23e05	0.021758089
106	0xbcb0bfb5	-0.021575788
107	0x3e149c29	0.14512695
108	0xbd4012b1	-0.046892826
109	0xbcd15b60	-0.025556266
110	0x3d1ec6ec	0.038763925
111	0x3b84a48a	0.004047935
112	0x3dad6bf9	0.0846786
113	0xbc9ab27c	-0.018883936
114	0xbd3fa8fb	-0.04679201
115	0x3daf3a15	0.08556
116	0x3d082953	0.033242535
117	0xbde550bb	-0.11197039
118	0xbd10f854	-0.035393074
119	0xbd8f5fd4	-0.070007

fc2.weight f4 [84, 120]
0	0x3d58ca98	0.052927583
1	0x3d6d1f64	0.057891265
2	0x3d80a2a2	0.0628102
3	0x3d5ab41e	0.05339443
4	0xbb1a95c0	-0.0023587793
5	0xbce384f4	-0.027773358
6	0x3d26ba97	0.04070529
7	0x3c89a0f7	0.016800387
8	0xbd19e84e	-0.03757506
9	0xbcca3ae6	-0.024686288
10	0xbd0b2f90	-0.033980906
11	0x3d91ff4f	0.071287744
12	0x3cdcc4c1	0.026949288
13	0x3a625714	0.00086341915
14	0x3db27c44	0.08715108
15	0x3dd6c5ce	0.10486947
16	0xbb593d33	-0.003314805
17	0xbd827a73	-0.063710116
18	0xbd8b1de7	-0.06792813
19	0x3dbf33be	0.09336041
20	0xbd82a803	-0.06379702
21	0x3da8e465	0.08246688
22	0xbdacc3c9	-0.084357806
23	0xba92f2d6	-0.0011211287
24	0xbdfc6b5b	-0.12325164
25	0x3d95da0d	0.073169805
26	0x3dc72369	0.09723551
27	0x3d667779	0.05626628
28	0x3d58d711	0.05293948
29	0xbde8bffa	-0.113647416
30	0x3cc86cff	0.024466036
31	0xbe490a5a	-0.19632855
32	0x3b1f891d	0.00243432
33	0xbd3b0bd5	-0.04566558
34	0xbdc046db	-0.093885146
35	0x3d60efdc	0.054916248
36	0xbd15be39	-0.036558364
37	0x3d1be5fd	0.03806113
38	0x3c3bd15f	0.011463492
39	0xbdf919b6	-0.12163107
40	0xbcea6c44	-0.028616078
41	0x3d146a95	0.036234457
42	0xbbfbd9fe	-0.007685899
43	0xbc259da2	-0.010108383
44	0xbd1924a7	-0.03738847
45	0xbdb7be0d	-0.08971796
46	0xbbbd7fb6	-0.0057830466
47	0x3e32ab20	0.17448092
48	0x3d0af0ac	0.03392093
49	0xbdf3b9c9	-0.1190067
50	0x3d2c2e94	0.042036608
51	0x3d17900f	0.03700262
52	0x3d9754ab	0.07389196
53	0xbd1ca96f	-0.038247522
54	0xbe1f673f	-0.15566729
55	0xbd56d46f	-0.052448686
56	0xbdca1798	-0.098677814
57	0xba221182	-0.00061824184
58	0x3cf50a97	0.029912276
59	0x3cad77cc	0.021175288
60	0x3c0562f1	0.008141265
61	0x3d97b1d1	0.07406963
62	0xbc8f04aa	-0.017458279
63	0x3d989d90	0.07451928
64	0xbd2954b0	-0.04134053
65	0xbd34926e	-0.04408496
66	0xbdb37639	-0.087627836
67	0xbd1436e4	-0.03618516
68	0x3b90a048	0.0044136383
69	0xbdb4c36f	-0.088263385
70	0xbd674e60	-0.05647123
71	0x3dc356d6	0.09538047
72	0x3c63ff78	0.013915889
73	0xbd9f6e8f	-0.07784759
74	0x3d0002e6	0.031252764
75	0xbdf748c4	-0.12074426
76	0xbca206da	-0.019778658
77	0xbddaee24	-0.10689953
78	0xbcf73af2	-0.030179475
79	0xbd7ee738	-0.062232226
80	0x3da6715f	0.081270926
81	0x3d3c0d61	0.045911197
82	0xbd684040	-0.0567019
83	0xbd19f253	-0.037584614
84	0x3d6023c5	0.054721612
85	0xbc899ea9	-0.016799288
86	0xbb5dd3a0	-0.0033848062
87	0x3e205e88	0.15661061
88	0xbc63a187	-0.013893492
89	0x3d96c6a1	0.07362104
90	0x3d202f63	0.03910769
91	0x3cdba3e8	0.026811555
92	0xbd27e0c1	-0.040985826
93	0x3cfe3b38	0.031034097
94	0xbda920b0	-0.08258188
95	0xbbc3291b	-0.005955828
96	0x3db0f60f	0.08640682
97	0x3df11311	0.11771215
98	0xbc8d74f7	-0.017267687
99	0xbdd5000b	-0.10400399
100	0x3d32e8fc	0.043679222
101	0xbce6cbfe	-0.028173443
102	0x3d36843b	0.0445597
103	0xbd872755	-0.06599299
104	0xbda7b380	-0.08188534
105	0xbd9261d4	-0.071475655
106	0x3d38f12a	0.045151867
107	0x3dabea0c	0.0839425
108	0xbd5a02c7	-0.053225305
109	0xbdf4aa55	-0.11946551
110	0xbcc51791	-0.024059089
111	0x3d442376	0.04788538
112	0x3d0fc9da	0.03510461
113	0x3d8a67b2	0.067580596
114	0xbdb81f75	-0.08990375
115	0x3b85d6a8	0.004084427
116	0xbd8a5b13	-0.06755652
117	0xbca80c17	-0.020513577
118	0xbb9e1f24	-0.0048254896
119	0xbb677092	-0.00353149
120	0xbba6a7d4	-0.0050859246
121	0x3c7d2280	0.01545012
122	0xbdc4fb2e	-0.09618221
123	0xbd4fa066	-0.050690077
124	0x3de9382a	0.113876656
125	0x3d3438a0	0.043999314
126	0x3d9723f6	0.07379906
127	0x3e16f79c	0.14742893
128	0x3dc924e6	0.09821491
129	0x3d10e920	0.035378575
130	0x3b1e8ff5	0.0024194692
131	0xbd67d7f4	-0.056602433
132	0x3d7ef94f	0.062249478
133	0x3e0763d0	0.13221669
134	0x3dafe5bc	0.0858874
135	0xbd05bdad	-0.032651592
136	0x3d03e351	0.032199208
137	0xbddcc080	-0.10778904
138	0x3db448f0	0.08802974
139	0xbd7375cd	-0.059438515
140	0x3df7315a	0.1206996
141	0xbd78db6c	-0.060756132
142	0x37b12a75	2.1119815e-05
143	0xbcdbea9a	-0.026845265
144	0x3b6b1795	0.003587221
145	0xbc6c7443	-0.014432016
146	0xbc05840f	-0.008149161
147	0x3c86e26a	0.016465385
148	0xbd2ec6aa	-0.04266993
149	0xbe00e2c6	-0.12586507
150	0x3d8fd30e	0.07022677
151	0xbdcac353	-0.099005364
152	0xbc08b0d6	-0.008342942
153	0x3db6d501	0.08927346
154	0x3cf0fba3	0.029416865
155	0xbd2bc282	-0.041933544
156	0x3d68cc14	0.05683525
157	0xbd7f3de0	-0.062314868
158	0x3c006eab	0.007838885
159	0xbdb085a8	-0.08619243
160	0x3c09a496	0.008401057
161	0x3cd7ac48	0.026327267
162	0x3cbc7059	0.02300279
163	0x3b0e6d59	0.0021732657
164	0xbcef4d5f	-0.029211698
165	0x3d49624d	0.049166013
166	0xbdaeb15d	-0.08529923
167	0xbd06f9bc	-0.03295301
168	0x3d1c4764	0.03815402
169	0xbd3bccb4	-0.045849517
170	0xbd2bb33d	-0.04191898
171	0x3def150e	0.11673938
172	0x3d777e1f	0.060423013
173	0xbc583593	-0.013196367
174	0x3d1892e6	0.03724947
175	0xbd13b884	-0.03606464
176	0xbd61a67d	-0.055090416
177	0xbca3251a	-0.019915152
178	0xbbef911f	-0.007311001
179	0x3cb6d987	0.022320522
180	0xbd0b61f5	-0.034028966
181	0xbd8e77d8	-0.06956452
182	0x3c925e63	0.017867273
183	0x3de623bb	0.11237284
184	0xbcceef5e	-0.025260624
185	0x3d9e1a56	0.07719867
186	0x3dd6b7c1	0.10484267
187	0xbd75d0bd	-0.06001352
188	0x39728805	0.0002312959
189	0x3c9724ed	0.018450225
190	0x3cd14a6d	0.025548184
191	0x3c6eb2a4	0.014568958
192	0xbd70176d	-0.05861609
193	0x3dc08282	0.093998924
194	0xbd876a1b	-0.06612035
195	0x3d0e6d82	0.034772404
196	0x3e27e3ad	0.16395445
197	0x3b925f32	0.0044669146
198	0x3a828607	0.0009958156
199	0xbc9953eb	-0.018716773
200	0xbcfc06f5	-0.030765036
201	0xbc921756	-0.017833393
202	0xbd39187a	-0.04518936
203	0xbd7ada51	-0.06124336
204	0x3cd209be	0.025639411
205	0xbd89998a	-0.067187384
206	0x3dd3c4d2	0.10340275
207	0xbc1f87b1	-0.009736941
208	0xbdac0a88	-0.08400446
209	0xbdd42d93	-0.10360255
210	0xbe13315e	-0.14374301
211	0xbca77491	-0.020441325
212	0x3d1cc8d5	0.038277466
213	0x3d049526	0.0323688
214	0xbd1c26ba	-0.03812287
215	0xbcb03d88	-0.021513715
216	0xbd2befc1	-0.041976694
217	0x3d302d49	0.043011937
218	0xbbd1038b	-0.006378596
219	0x3d7f112f	0.062272247
220	0xbc9b15fa	-0.018931378
221	0x3d2c1464	0.042011634
222	0x3df16067	0.117859654
223	0xbd4e0717	-0.05029973
224	0xbd436ef8	-0.04771325
225	0xbc8f1468	-0.017465785
226	0x3e11a9ba	0.14224902
227	0x3cf9051b	0.030397942
228	0x3c55d12e	0.013050361
229	0xbdb8bd48	-0.090204775
230	0xbd9d2106	-0.07672314
231	0xbbf6f0ae	-0.0075360155
232	0xbcbe897a	-0.023258913
233	0x3d626664	0.05527343
234	0x3d127823	0.035759103
235	0xbda8b14f	-0.08236944
236	0x3c4daaea	0.012552956
237	0x3b1dec63	0.0024097196
238	0x3cc0eca5	0.02355034
239	0x3d268586	0.04065468
240	0xbd5c0dd0	-0.05372411
241	0xbd871c26	-0.06597166
242	0xbda6da0f	-0.0814706
243	0xbd80a4f2	-0.06281461
244	0x3c006379	0.007836216
245	0x3c0f8969	0.0087607885
246	0x3d164def	0.036695417
247	0x3cb470b3	0.022026395
248	0x3d97d9db	0.074145995
249	0x3ce17fa4	0.027526684
250	0xbd82dc84	-0.06389716
251	0x3d9c3e2d	0.076290466
252	0xbc959771	-0.01826069
253	0x3bfb778a	0.0076741623
254	0xbd0fe62c	-0.03513162
255	0x3b9e9ebd	0.0048407004

fc2.bias f4 [84]
0	0x3e4f8ee5	0.20269354
1	0x3db09260	0.08621669
2	0xbcfc0d71	-0.030768128
3	0x3d4f9101	0.050675396
4	0xbd486479	-0.048923943
5	0x3eb5c0b2	0.35498577
6	0x3e0ca048	0.13733017
7	0x3d5c44ee	0.053776674
8	0xbdc40217	-0.09570711
9	0x3e05b004	0.13055426
10	0xbd417c6d	-0.047237802
11	0xbd786544	-0.06064345
12	0xbc8de87d	-0.017322773
13	0x3dfd8953	0.12379708
14	0x3d30951b	0.043110948
15	0xbdc4ee7b	-0.09615799
16	0x3d8b8eb7	0.0681433
17	0x3c91f980	0.017819166
18	0x3eafb934	0.34320986
19	0x3e6f9349	0.23396029
20	0xbcc50369	-0.024049478
21	0xbbde9f8f	-0.006793923
22	0xbd246c36	-0.04014226
23	0x3e0eb7b8	0.1393727
24	0x3e6f085a	0.2334303
25	0x3e309466	0.1724411
26	0xbdb1f668	-0.086895764
27	0xbdf39875	-0.11894313
28	0x3e028ca9	0.1274897
29	0x3d57b272	0.052660413
30	0x3d1c3f00	0.03814602
31	0x3d87dd53	0.06634011
32	0x3e2e03b2	0.16993597
33	0x3e192631	0.14955975
34	0x3cec74ba	0.028864253
35	0x3d43897d	0.04773854
36	0xbdb2f8c8	-0.087388575
37	0xbb40f61c	-0.0029443568
38	0xbd44af4d	-0.048018742
39	0x3e4c4bb0	0.19950747
40	0xbe153eee	-0.14574787
41	0x3d8fd136	0.07022326
42	0xbd976b33	-0.073934935
43	0x3cbfc6ce	0.023410227
44	0x3e125e69	0.14293827
45	0x3eb3e38f	0.3513455
46	0xbd09fb48	-0.033686906
47	0x3e943fc4	0.289549
48	0xbe053603	-0.13008885
49	0xbd9a0e79	-0.07522292
50	0xbc45d264	-0.012074087
51	0x3e5b6e91	0.21428896
52	0x3e51049d	0.20411916
53	0xbd97b201	-0.074069984
54	0xbdcc5cd5	-0.09978644
55	0xbe58c3d4	-0.21168453
56	0x3d87c470	0.06629264
57	0xbe298d33	-0.1655777
58	0xbe0c6482	-0.13710216
59	0x3c69ed8f	0.01427783
60	0x3d98e9bb	0.074664555
61	0xbe56d6f1	-0.20980431
62	0x3d02e1a5	0.031953473
63	0x3d93bd2d	0.07213817
64	0x3e497748	0.19674408
65	0x3e8a6a8f	0.27034423
66	0x3e8d0bac	0.27547967
67	0x3d274989	0.040841613
68	0x3e46fa97	0.1943153
69	0xbdace261	-0.08441616
70	0x3e1bea49	0.15226091
71	0xbcb90399	-0.022584723
72	0xbda6b5f9	-0.08140177
73	0xbd5d1dd2	-0.053983517
74	0xbda07c68	-0.078362286
75	0x3e8a9f4a	0.27074653
76	0xbd679384	-0.056537166
77	0xbdc4ba69	-0.096058674
78	0xbd5b892e	-0.05359762
79	0x3e0e03d2	0.13868645
80	0x3dbd8f3e	0.09255837
81	0x3b09754b	0.0020974453
82	0xbd79c04b	-0.0609744
83	0x3e1689eb	0.14701049

fc3.weight f4 [10, 84]
0	0x3e16f72d	0.14742728
1	0x3e328ad7	0.17435776
2	0xbd993e8b	-0.07482632
3	0x3e86bc14	0.26315367
4	0x3be96e6b	0.0071237586
5	0xbe378be6	-0.17924461
6	0xbe04cb03	-0.12968068
7	0x3d34cdf4	0.044141725
8	0xbd5176c2	-0.051138647
9	0x3d8600df	0.06543135
10	0x3d175488	0.03694585
11	0xbd822202	-0.06354143
12	0xbdb19a6d	-0.086720325
13	0x3d86775d	0.065657355
14	0xbcc11b45	-0.023572573
15	0x3e6de341	0.23231222
16	0xbd55da80	-0.05221033
17	0x3ddb33e4	0.10703257
18	0x3db00ae4	0.08595827
19	0xbe6b971b	-0.23006861
20	0xb9301a82	-0.00016794543
21	0xbe15e8e6	-0.14639625
22	0x3e8b2c2a	0.27182132
23	0x3de55587	0.11197954
24	0x3d38f958	0.045159668
25	0x3de78371	0.11304367
26	0x3d950ec7	0.07278209
27	0xbe65a441	-0.22425939
28	0x3e66ee64	0.22551876
29	0x3dcdeaca	0.10054548
30	0xbe01eaad	-0.12687178
31	0xbe2be738	-0.16787422
32	0xbde585b1	-0.1120714
33	0xbda1aba5	-0.07894067
34	0xbd9c8ad6	-0.07643668
35	0xbe21aa51	-0.15787627
36	0xbcea4654	-0.028597988
37	0xbd675269	-0.056475077
38	0xbc90ad55	-0.017660776
39	0xbd5b4099	-0.053528402
40	0x3d974fff	0.07388305
41	0x3dc99538	0.09842914
42	0x3e24a796	0.16079554
43	0x3c963a9f	0.0183385
44	0xbd130c56	-0.035900436
45	0xbde12e6e	-0.10995184
46	0xbd8910a6	-0.066926286
47	0xbe467b08	-0.1938287
48	0x3b3f449b	0.002918518
49	0xbdb73625	-0.08945874
50	0x3d81f30e	0.06345187
51	0xbdcdf31e	-0.100561365
52	0xbe8c1abb	-0.27364144
53	0xbd44cd0c	-0.04804711
54	0xbe04e65c	-0.129785
55	0xbd7c008a	-0.06152395
56	0x3e31490e	0.17313024
57	0x3d90486e	0.07045065
58	0x3e9ed36c	0.31020677
59	0xbd55f581	-0.052236084
60	0x3e56cca0	0.20976496
61	0x3e0bdb63	0.13657908
62	0x3d52c926	0.05146136
63	0x3db207ec	0.08692917
64	0x3dd58909	0.10426528
65	0xbd63ce45	-0.055616636
66	0xbe947395	-0.28994432
67	0x3e98222a	0.29713565
68	0x3e70be12	0.23510006
69	0xbd5ffe5f	-0.054685947
70	0xbcc84463	-0.024446672
71	0x3d7112f7	0.058855977
72	0xbd5a9227	-0.053362038
73	0xbc5c4544	-0.013444249
74	0xbe2fef96	-0.17181239
75	0xbdfa40f7	-0.12219422
76	0x3dfbc70b	0.12293824
77	0xbdbb2419	-0.091377445
78	0xbce1f49a	-0.027582455
79	0x3d78d6c0	0.060751677
80	0x3dfbe2b2	0.12299098
81	0x3cdd51d4	0.027016558
82	0xbd1dda6c	-0.03853838
83	0x3c2363cb	0.009972523
84	0xbe88979f	-0.26678178
85	0xbe054f3a	-0.13018504
86	0x3dbc7c3b	0.092033826
87	0x3dd3808d	0.103272535
88	0xbd8d5175	-0.06900302
89	0xbe8d376c	-0.27581346
90	0x3c24ef26	0.010066783
91	0xbde0d896	-0.109788105
92	0xbc4a3bdc	-0.012343373
93	0x3de44601	0.11146165
94	0xbd958916	-0.07301538
95	0x3df9c2cc	0.12195358
96	0x3dbddc01	0.09270478
97	0xbe6b7220	-0.22992754
98	0x3d77d7ba	0.060508467
99	0xbdeacc05	-0.11464695
100	0x3d4d6f18	0.050154775
101	0xbcda1ccf	-0.026625065
102	0xbd4d2ab4	-0.050089553
103	0x3dfcad17	0.12337702
104	0x3dc06c66	0.09395675
105	0x3db0bb0f	0.086294286
106	0x3ea06c13	0.31332454
107	0x3d9c8512	0.07642569
108	0xbe6ea015	-0.23303254
109	0x3d886aee	0.0666102
110	0x3dc63882	0.09678747
111	0x3eb2a092	0.3488813
112	0xbe634751	-0.22195174
113	0xbdcbee59	-0.099575706
114	0xbe2b38c7	-0.16720878
115	0x3dd88097	0.105714016
116	0xbd9053c3	-0.07047226
117	0xbe91c119	-0.28467634
118	0xbcd28526	-0.025698256
119	0x3d6c6bb4	0.0577199
120	0x3d45c46f	0.048283037
121	0xbc6a64dc	-0.014306273
122	0x3e41b9a9	0.1891848
123	0xbdaa8194	-0.08325496
124	0x3d719f20	0.058989644
125	0x3d8a5bef	0.06755816
126	0xbdc823e5	-0.09772471
127	0xbd3e9e8a	-0.046537913
128	0xbd08b01b	-0.033371072
129	0xbebbe5d0	-0.3669877
130	0x3e2c0b60	0.16801214
131	0xbe7a6d68	-0.24455798
132	0x3d8773b0	0.066138625
133	0x3c9f335b	0.019433668
134	0xbe262ba1	-0.1622758
135	0xbe67aa71	-0.22623612
136	0x3d9a4dfe	0.07534407
137	0x3d004e3e	0.031324618
138	0xbd2f7093	-0.04283197
139	0x3e8c0a71	0.27351716
140	0x3e7cc789	0.24685492
141	0x3dcdaa8f	0.10042297
142	0x3d8acd7c	0.06777474
143	0xbb0fe840	-0.00219585
144	0xbe416f71	-0.18890168
145	0x3e91fddf	0.28514
146	0xbe0954e6	-0.13411292
147	0x3d43eca9	0.04783312
148	0xbc8fe2ba	-0.017564166
149	0x3d7310a9	0.05934206
150	0xbe79a4a6	-0.24379215
151	0x3e6a6206	0.22888955
152	0xbdf883da	-0.12134524
153	0xbd964fa8	-0.07339412
154	0xbe256280	-0.16150856
155	0xbd82a8df	-0.06379866
156	0xbca36e07	-0.019949926
157	0xbd4c5a32	-0.049890704
158	0x3dfea097	0.12432974
159	0xbcba0a18	-0.022709891
160	0x3e0fcaf6	0.14042267
161	0x3e22e4fd	0.15907665
162	0x3d6ef929	0.058343086
163	0x3b82c521	0.0039907848
164	0x3e00a95f	0.1256461
165	0xbd194c9c	-0.037426576
166	0x3e537088	0.20648396
167	0x3e19f96a	0.1503655
168	0x3d9fc908	0.078020155
169	0x3df79f05	0.120908774
170	0xbd0b043a	-0.033939578
171	0xbd7c957e	-0.061666004
172	0x3d58ae54	0.052900627
173	0x3e2c8162	0.1684623
174	0xbd49814d	-0.049195576
175	0xbdfcdee8	-0.123472035
176	0xbc5049a2	-0.012712868
177	0xbd29112f	-0.041276153
178	0xbc260afb	-0.010134454
179	0xbcc41623	-0.023936337
180	0x3e05af08	0.1305505
181	0x3e236678	0.15957057
182	0x3d689996	0.056787096
183	0x3b8586ab	0.0040748916
184	0xbd36b921	-0.044610146
185	0xbd425734	-0.047446445
186	0x3dd99651	0.10624374
187	0x3d943527	0.072367005
188	0xbd8a54a6	-0.06754427
189	0xbad4d34a	-0.0016237285
190	0x3a4e3aff	0.00078670675
191	0xbe14c60e	-0.14528677
192	0x3dc2ea41	0.09517337
193	0xbe42781a	-0.18991128
194	0xbb31ee25	-0.0027150002
195	0xbce60d50	-0.02808252
196	0x3e4b84e7	0.19874917
197	0x3e2746cf	0.16335605
198	0xbde97c82	-0.11400701
199	0xbd31ab08	-0.043376
200	0x3c06f752	0.008237677
201	0x3e08a9de	0.13346049
202	0xbe323d91	-0.17406298
203	0x3e36d829	0.17855896
204	0xbd5e13d1	-0.054218117
205	0xbde6bcf6	-0.1126651
206	0xbdcfae7a	-0.10140701
207	0xbe3be0a3	-0.18347411
208	0xbd62cb5a	-0.055369712
209	0xbe20544f	-0.15657161
210	0xbdba59fd	-0.09099195
211	0xbdaac599	-0.0833847
212	0x3e28b98c	0.1647703
213	0x3cef7e90	0.029235154
214	0x3b9dc878	0.0048151575
215	0x3e124a4c	0.14286155
216	0xbd5c84ec	-0.0538377
217	0xbcc6980a	-0.02424242
218	0x3e2add7f	0.16686057
219	0x3d52a7ca	0.051429547
220	0x3d2d72fd	0.04234599
221	0x3d8b8da4	0.06814125
222	0xbbd11bb3	-0.006381476
223	0xbd7b5519	-0.061360452
224	0x3e0113e1	0.1260524
225	0xbc0cba02	-0.00858927
226	0xbda43757	-0.08018368
227	0x3d93205a	0.07183905
228	0x3e887398	0.2665069
229	0xbdee8d36	-0.116480276
230	0x3e49af6d	0.19695826
231	0xbd9b8427	-0.075935654
232	0x3e3d0792	0.18459919
233	0x3da7f11b	0.08200284
234	0x3e4d748a	0.20063987
235	0xbd9b9a56	-0.075977966
236	0x3da0770c	0.078352064
237	0xbb92f08b	-0.0044842414
238	0x3d3a8ddf	0.045545455
239	0xbb980351	-0.004639067
240	0xbd9937c7	-0.07481342
241	0x3d8e922f	0.06961476
242	0xbd78c5ea	-0.06073562
243	0x3e50f9d1	0.20407797
244	0xbe78af35	-0.24285586
245	0xbd9262a3	-0.0714772
246	0xbdcaec1f	-0.09908318
247	0x3e833f75	0.2563435
248	0xbe5e011f	-0.21680115
249	0xbd9faf7b	-0.07797142
250	0xbe237c29	-0.15965332
251	0x3ded6a0f	0.11592495
252	0x3e0e439b	0.13892977
253	0xbd1475f7	-0.036245313
254	0x3d320777	0.04346415
255	0xbe1c1ac9	-0.15244593

fc3.bias f4 [10]
0	0xbdf10b4f	-0.11769735
1	0xbf3a51de	-0.7278117
2	0x3e580e4a	0.21099201
3	0x3ed1aa2c	0.40950143
4	0x3f05449c	0.52057815
5	0xbc84b30c	-0.016198657
6	0xbc83bd59	-0.016081499
7	0xbe93e609	-0.2888644
8	0x3edb2685	0.42802826
9	0xbeb1e5fa	-0.3474577
